x_train shape: (1000, 32, 32, 3) - y_train shape: (1000, 1)
x_test shape: (1000, 32, 32, 3) - y_test shape: (1000, 1)
Model: "cifar10-classifier"
_________________________________________________________________
 Layer (type)                Output Shape              Param #   
=================================================================
 input_3 (InputLayer)        [(None, 32, 32, 3)]       0         
                                                                 
 cifar10-encoder (Functiona  (None, 2048)              23564807  
 l)                                                              
                                                                 
 dropout (Dropout)           (None, 2048)              0         
                                                                 
 dense (Dense)               (None, 512)               1049088   
                                                                 
 dropout_1 (Dropout)         (None, 512)               0         
                                                                 
 dense_1 (Dense)             (None, 10)                5130      
                                                                 
=================================================================
Total params: 24619025 (93.91 MB)
Trainable params: 24573578 (93.74 MB)
Non-trainable params: 45447 (177.53 KB)
_________________________________________________________________
Epoch 1/10

1/4 [======>.......................] - ETA: 22s - loss: 3.3001 - sparse_categorical_accuracy: 0.0981
…
